…
                , activation = 'relu'
                , input_shape = input_shape) %>%
  layer_max_pooling_2d(pool_size = c(2,2)) %>% 
  layer_dropout(rate = 0.25) %>% 
  layer_flatten() %>%
  layer_dense(units = 10
              , activation = 'relu') %>%
  layer_dropout(rate = 0.5) %>% 
  layer_dense(units = num_classes
              , activation = 'softmax')
                
model %>% summary()
# __________________________________________________________
# Layer (type)              Output Shape           Param #  
# ==========================================================
#   conv2d (Conv2D)           (None, 26, 26, 16)     160      
# __________________________________________________________
# max_pooling2d (MaxPooling (None, 13, 13, 16)     0        
#                __________________________________________________________
#                dropout (Dropout)         (None, 13, 13, 16)     0        
#                __________________________________________________________
#                flatten (Flatten)         (None, 2704)           0        
#                __________________________________________________________
#                dense (Dense)             (None, 10)             27050    
#                __________________________________________________________
#                dropout_1 (Dropout)       (None, 10)             0        
#                __________________________________________________________
#                dense_1 (Dense)           (None, 10)             110      
#                ==========================================================
#                  Total params: 27,320
#                Trainable params: 27,320
#                Non-trainable params: 0
#                __________________________________________________________
# This means there are 27,320 learnable parameters

##############################
# Compilation and Optimization
##############################
…
